loading model from /home/zhangtonghe/flow-mnist/log/ShortCutReFlow/24-12-11-20-51-14_constant_1/ckpt/model_10.pth
...successfully loaded model_state_dict to self.network
...successfully loaded optimizer_state_dict to self.optimizer
...loading complete.
ShortCutFlow object contains self.network=UNetShortCutModelWrapper(
  (time_embed): Sequential(
    (0): Linear(in_features=32, out_features=128, bias=True)
    (1): SiLU()
    (2): Linear(in_features=128, out_features=128, bias=True)
  )
  (dt_embed): Sequential(
    (0): Linear(in_features=32, out_features=128, bias=True)
    (1): SiLU()
    (2): Linear(in_features=128, out_features=128, bias=True)
  )
  (label_emb): Embedding(10, 128)
  (input_blocks): ModuleList(
    (0): TimestepEmbedSequential(
      (0): Conv2d(1, 32, kernel_size=(3, 3), stride=(1, 1), padding=(1, 1))
    )
    (1): TimestepEmbedSequential(
      (0): ResBlock(
        (in_layers): Sequential(
          (0): GroupNorm32(32, 32, eps=1e-05, affine=True)
          (1): SiLU()
          (2): Conv2d(32, 32, kernel_size=(3, 3), stride=(1, 1), padding=(1, 1))
        )
        (h_upd): Identity()
        (x_upd): Identity()
        (emb_layers): Sequential(
          (0): SiLU()
          (1): Linear(in_features=128, out_features=32, bias=True)
        )
        (out_layers): Sequential(
          (0): GroupNorm32(32, 32, eps=1e-05, affine=True)
          (1): SiLU()
          (2): Dropout(p=0, inplace=False)
          (3): Conv2d(32, 32, kernel_size=(3, 3), stride=(1, 1), padding=(1, 1))
        )
        (skip_connection): Identity()
      )
      (1): AttentionBlock(
        (norm): GroupNorm32(32, 32, eps=1e-05, affine=True)
        (qkv): Conv1d(32, 96, kernel_size=(1,), stride=(1,))
        (attention): QKVAttentionLegacy()
        (proj_out): Conv1d(32, 32, kernel_size=(1,), stride=(1,))
      )
    )
    (2): TimestepEmbedSequential(
      (0): Downsample(
        (op): Conv2d(32, 32, kernel_size=(3, 3), stride=(2, 2), padding=(1, 1))
      )
    )
    (3): TimestepEmbedSequential(
      (0): ResBlock(
        (in_layers): Sequential(
          (0): GroupNorm32(32, 32, eps=1e-05, affine=True)
          (1): SiLU()
          (2): Conv2d(32, 64, kernel_size=(3, 3), stride=(1, 1), padding=(1, 1))
        )
        (h_upd): Identity()
        (x_upd): Identity()
        (emb_layers): Sequential(
          (0): SiLU()
          (1): Linear(in_features=128, out_features=64, bias=True)
        )
        (out_layers): Sequential(
          (0): GroupNorm32(32, 64, eps=1e-05, affine=True)
          (1): SiLU()
          (2): Dropout(p=0, inplace=False)
          (3): Conv2d(64, 64, kernel_size=(3, 3), stride=(1, 1), padding=(1, 1))
        )
        (skip_connection): Conv2d(32, 64, kernel_size=(1, 1), stride=(1, 1))
      )
    )
    (4): TimestepEmbedSequential(
      (0): Downsample(
        (op): Conv2d(64, 64, kernel_size=(3, 3), stride=(2, 2), padding=(1, 1))
      )
    )
    (5): TimestepEmbedSequential(
      (0): ResBlock(
        (in_layers): Sequential(
          (0): GroupNorm32(32, 64, eps=1e-05, affine=True)
          (1): SiLU()
          (2): Conv2d(64, 64, kernel_size=(3, 3), stride=(1, 1), padding=(1, 1))
        )
        (h_upd): Identity()
        (x_upd): Identity()
        (emb_layers): Sequential(
          (0): SiLU()
          (1): Linear(in_features=128, out_features=64, bias=True)
        )
        (out_layers): Sequential(
          (0): GroupNorm32(32, 64, eps=1e-05, affine=True)
          (1): SiLU()
          (2): Dropout(p=0, inplace=False)
          (3): Conv2d(64, 64, kernel_size=(3, 3), stride=(1, 1), padding=(1, 1))
        )
        (skip_connection): Identity()
      )
    )
  )
  (middle_block): TimestepEmbedSequential(
    (0): ResBlock(
      (in_layers): Sequential(
        (0): GroupNorm32(32, 64, eps=1e-05, affine=True)
        (1): SiLU()
        (2): Conv2d(64, 64, kernel_size=(3, 3), stride=(1, 1), padding=(1, 1))
      )
      (h_upd): Identity()
      (x_upd): Identity()
      (emb_layers): Sequential(
        (0): SiLU()
        (1): Linear(in_features=128, out_features=64, bias=True)
      )
      (out_layers): Sequential(
        (0): GroupNorm32(32, 64, eps=1e-05, affine=True)
        (1): SiLU()
        (2): Dropout(p=0, inplace=False)
        (3): Conv2d(64, 64, kernel_size=(3, 3), stride=(1, 1), padding=(1, 1))
      )
      (skip_connection): Identity()
    )
    (1): AttentionBlock(
      (norm): GroupNorm32(32, 64, eps=1e-05, affine=True)
      (qkv): Conv1d(64, 192, kernel_size=(1,), stride=(1,))
      (attention): QKVAttentionLegacy()
      (proj_out): Conv1d(64, 64, kernel_size=(1,), stride=(1,))
    )
    (2): ResBlock(
      (in_layers): Sequential(
        (0): GroupNorm32(32, 64, eps=1e-05, affine=True)
        (1): SiLU()
        (2): Conv2d(64, 64, kernel_size=(3, 3), stride=(1, 1), padding=(1, 1))
      )
      (h_upd): Identity()
      (x_upd): Identity()
      (emb_layers): Sequential(
        (0): SiLU()
        (1): Linear(in_features=128, out_features=64, bias=True)
      )
      (out_layers): Sequential(
        (0): GroupNorm32(32, 64, eps=1e-05, affine=True)
        (1): SiLU()
        (2): Dropout(p=0, inplace=False)
        (3): Conv2d(64, 64, kernel_size=(3, 3), stride=(1, 1), padding=(1, 1))
      )
      (skip_connection): Identity()
    )
  )
  (output_blocks): ModuleList(
    (0): TimestepEmbedSequential(
      (0): ResBlock(
        (in_layers): Sequential(
          (0): GroupNorm32(32, 128, eps=1e-05, affine=True)
          (1): SiLU()
          (2): Conv2d(128, 64, kernel_size=(3, 3), stride=(1, 1), padding=(1, 1))
        )
        (h_upd): Identity()
        (x_upd): Identity()
        (emb_layers): Sequential(
          (0): SiLU()
          (1): Linear(in_features=128, out_features=64, bias=True)
        )
        (out_layers): Sequential(
          (0): GroupNorm32(32, 64, eps=1e-05, affine=True)
          (1): SiLU()
          (2): Dropout(p=0, inplace=False)
          (3): Conv2d(64, 64, kernel_size=(3, 3), stride=(1, 1), padding=(1, 1))
        )
        (skip_connection): Conv2d(128, 64, kernel_size=(1, 1), stride=(1, 1))
      )
    )
    (1): TimestepEmbedSequential(
      (0): ResBlock(
        (in_layers): Sequential(
          (0): GroupNorm32(32, 128, eps=1e-05, affine=True)
          (1): SiLU()
          (2): Conv2d(128, 64, kernel_size=(3, 3), stride=(1, 1), padding=(1, 1))
        )
        (h_upd): Identity()
        (x_upd): Identity()
        (emb_layers): Sequential(
          (0): SiLU()
          (1): Linear(in_features=128, out_features=64, bias=True)
        )
        (out_layers): Sequential(
          (0): GroupNorm32(32, 64, eps=1e-05, affine=True)
          (1): SiLU()
          (2): Dropout(p=0, inplace=False)
          (3): Conv2d(64, 64, kernel_size=(3, 3), stride=(1, 1), padding=(1, 1))
        )
        (skip_connection): Conv2d(128, 64, kernel_size=(1, 1), stride=(1, 1))
      )
      (1): Upsample(
        (conv): Conv2d(64, 64, kernel_size=(3, 3), stride=(1, 1), padding=(1, 1))
      )
    )
    (2): TimestepEmbedSequential(
      (0): ResBlock(
        (in_layers): Sequential(
          (0): GroupNorm32(32, 128, eps=1e-05, affine=True)
          (1): SiLU()
          (2): Conv2d(128, 64, kernel_size=(3, 3), stride=(1, 1), padding=(1, 1))
        )
        (h_upd): Identity()
        (x_upd): Identity()
        (emb_layers): Sequential(
          (0): SiLU()
          (1): Linear(in_features=128, out_features=64, bias=True)
        )
        (out_layers): Sequential(
          (0): GroupNorm32(32, 64, eps=1e-05, affine=True)
          (1): SiLU()
          (2): Dropout(p=0, inplace=False)
          (3): Conv2d(64, 64, kernel_size=(3, 3), stride=(1, 1), padding=(1, 1))
        )
        (skip_connection): Conv2d(128, 64, kernel_size=(1, 1), stride=(1, 1))
      )
    )
    (3): TimestepEmbedSequential(
      (0): ResBlock(
        (in_layers): Sequential(
          (0): GroupNorm32(32, 96, eps=1e-05, affine=True)
          (1): SiLU()
          (2): Conv2d(96, 64, kernel_size=(3, 3), stride=(1, 1), padding=(1, 1))
        )
        (h_upd): Identity()
        (x_upd): Identity()
        (emb_layers): Sequential(
          (0): SiLU()
          (1): Linear(in_features=128, out_features=64, bias=True)
        )
        (out_layers): Sequential(
          (0): GroupNorm32(32, 64, eps=1e-05, affine=True)
          (1): SiLU()
          (2): Dropout(p=0, inplace=False)
          (3): Conv2d(64, 64, kernel_size=(3, 3), stride=(1, 1), padding=(1, 1))
        )
        (skip_connection): Conv2d(96, 64, kernel_size=(1, 1), stride=(1, 1))
      )
      (1): Upsample(
        (conv): Conv2d(64, 64, kernel_size=(3, 3), stride=(1, 1), padding=(1, 1))
      )
    )
    (4): TimestepEmbedSequential(
      (0): ResBlock(
        (in_layers): Sequential(
          (0): GroupNorm32(32, 96, eps=1e-05, affine=True)
          (1): SiLU()
          (2): Conv2d(96, 32, kernel_size=(3, 3), stride=(1, 1), padding=(1, 1))
        )
        (h_upd): Identity()
        (x_upd): Identity()
        (emb_layers): Sequential(
          (0): SiLU()
          (1): Linear(in_features=128, out_features=32, bias=True)
        )
        (out_layers): Sequential(
          (0): GroupNorm32(32, 32, eps=1e-05, affine=True)
          (1): SiLU()
          (2): Dropout(p=0, inplace=False)
          (3): Conv2d(32, 32, kernel_size=(3, 3), stride=(1, 1), padding=(1, 1))
        )
        (skip_connection): Conv2d(96, 32, kernel_size=(1, 1), stride=(1, 1))
      )
      (1): AttentionBlock(
        (norm): GroupNorm32(32, 32, eps=1e-05, affine=True)
        (qkv): Conv1d(32, 96, kernel_size=(1,), stride=(1,))
        (attention): QKVAttentionLegacy()
        (proj_out): Conv1d(32, 32, kernel_size=(1,), stride=(1,))
      )
    )
    (5): TimestepEmbedSequential(
      (0): ResBlock(
        (in_layers): Sequential(
          (0): GroupNorm32(32, 64, eps=1e-05, affine=True)
          (1): SiLU()
          (2): Conv2d(64, 32, kernel_size=(3, 3), stride=(1, 1), padding=(1, 1))
        )
        (h_upd): Identity()
        (x_upd): Identity()
        (emb_layers): Sequential(
          (0): SiLU()
          (1): Linear(in_features=128, out_features=32, bias=True)
        )
        (out_layers): Sequential(
          (0): GroupNorm32(32, 32, eps=1e-05, affine=True)
          (1): SiLU()
          (2): Dropout(p=0, inplace=False)
          (3): Conv2d(32, 32, kernel_size=(3, 3), stride=(1, 1), padding=(1, 1))
        )
        (skip_connection): Conv2d(64, 32, kernel_size=(1, 1), stride=(1, 1))
      )
      (1): AttentionBlock(
        (norm): GroupNorm32(32, 32, eps=1e-05, affine=True)
        (qkv): Conv1d(32, 96, kernel_size=(1,), stride=(1,))
        (attention): QKVAttentionLegacy()
        (proj_out): Conv1d(32, 32, kernel_size=(1,), stride=(1,))
      )
    )
  )
  (out): Sequential(
    (0): GroupNorm32(32, 32, eps=1e-05, affine=True)
    (1): SiLU()
    (2): Conv2d(32, 1, kernel_size=(3, 3), stride=(1, 1), padding=(1, 1))
  )
)
  0%|          | 0/11 [00:00<?, ?it/s, FID=0]
  0%|          | 0/11 [00:00<?, ?it/s][A/share/zhangtonghe-nfs/anaconda3-backup/envs/dppo/lib/python3.8/site-packages/torchvision/models/_utils.py:135: UserWarning: Using 'weights' as positional parameter(s) is deprecated since 0.13 and may be removed in the future. Please use keyword parameter(s) instead.
…
